…
patch16-224', patience_epochs=10, pin_mem=True, rank=0, recount=1, remode='pixel', repeated_aug=True, replace_ln_bn=False, reprob=0.25, resplit=False, resume='', sched='cosine', seed=0, smoothing=0.1, some_fp=False, start_epoch=0, teacher_model='', teacher_model_file='', teacher_model_type='', train_interpolation='bicubic', warmup_epochs=5, warmup_lr=1e-06, weight_bits=32, weight_decay=0.05, world_size=3)
Creating model: configs/deit-small-patch16-224
ViTForImageClassification(
  (vit): ViTModel(
    (embeddings): ViTEmbeddings(
      (patch_embeddings): ViTPatchEmbeddings(
        (projection): Conv2d(3, 384, kernel_size=(16, 16), stride=(16, 16))
      )
      (dropout): Dropout(p=0.0, inplace=False)
    )
    (encoder): ViTEncoder(
      (layer): ModuleList(
        (0): ViTLayer(
          (attention): ViTAttention(
            (attention): ViTSelfAttention(
              (query): Linear(in_features=384, out_features=384, bias=True)
              (key): Linear(in_features=384, out_features=384, bias=True)
              (value): Linear(in_features=384, out_features=384, bias=True)
              (dropout): Dropout(p=0.0, inplace=False)
            )
            (output): ViTSelfOutput(
              (dense): Linear(in_features=384, out_features=384, bias=True)
              (dropout): Dropout(p=0.0, inplace=False)
            )
          )
          (drop_path): Identity()
          (intermediate): ViTIntermediate(
            (dense): Linear(in_features=384, out_features=1536, bias=True)
            (intermediate_act_fn): GELUActivation()
          )
          (output): ViTOutput(
            (dense): Linear(in_features=1536, out_features=384, bias=True)
            (dropout): Dropout(p=0.0, inplace=False)
            (drop_path): Identity()
          )
          (layernorm_before): LayerNorm((384,), eps=1e-05, elementwise_affine=True)
          (layernorm_after): LayerNorm((384,), eps=1e-05, elementwise_affine=True)
        )
        (1): ViTLayer(
          (attention): ViTAttention(
            (attention): ViTSelfAttention(
              (query): Linear(in_features=384, out_features=384, bias=True)
              (key): Linear(in_features=384, out_features=384, bias=True)
              (value): Linear(in_features=384, out_features=384, bias=True)
              (dropout): Dropout(p=0.0, inplace=False)
            )
            (output): ViTSelfOutput(
              (dense): Linear(in_features=384, out_features=384, bias=True)
              (dropout): Dropout(p=0.0, inplace=False)
            )
          )
          (drop_path): DropPath(drop_prob=0.009)
          (intermediate): ViTIntermediate(
            (dense): Linear(in_features=384, out_features=1536, bias=True)
            (intermediate_act_fn): GELUActivation()
          )
          (output): ViTOutput(
            (dense): Linear(in_features=1536, out_features=384, bias=True)
            (dropout): Dropout(p=0.0, inplace=False)
            (drop_path): DropPath(drop_prob=0.009)
          )
          (layernorm_before): LayerNorm((384,), eps=1e-05, elementwise_affine=True)
          (layernorm_after): LayerNorm((384,), eps=1e-05, elementwise_affine=True)
        )
        (2): ViTLayer(
          (attention): ViTAttention(
            (attention): ViTSelfAttention(
              (query): Linear(in_features=384, out_features=384, bias=True)
              (key): Linear(in_features=384, out_features=384, bias=True)
              (value): Linear(in_features=384, out_features=384, bias=True)
              (dropout): Dropout(p=0.0, inplace=False)
            )
            (output): ViTSelfOutput(
              (dense): Linear(in_features=384, out_features=384, bias=True)
              (dropout): Dropout(p=0.0, inplace=False)
            )
          )
          (drop_path): DropPath(drop_prob=0.018)
          (intermediate): ViTIntermediate(
            (dense): Linear(in_features=384, out_features=1536, bias=True)
            (intermediate_act_fn): GELUActivation()
          )
          (output): ViTOutput(
            (dense): Linear(in_features=1536, out_features=384, bias=True)
            (dropout): Dropout(p=0.0, inplace=False)
            (drop_path): DropPath(drop_prob=0.018)
          )
          (layernorm_before): LayerNorm((384,), eps=1e-05, elementwise_affine=True)
          (layernorm_after): LayerNorm((384,), eps=1e-05, elementwise_affine=True)
        )
        (3): ViTLayer(
          (attention): ViTAttention(
/home/shixl/.conda/envs/py38/lib/python3.8/site-packages/torchvision/transforms/transforms.py:329: UserWarning: Argument 'interpolation' of type int is deprecated since 0.13 and will be removed in 0.15. Please use InterpolationMode enum.
  warnings.warn(
            (attention): ViTSelfAttention(
              (query): Linear(in_features=384, out_features=384, bias=True)
              (key): Linear(in_features=384, out_features=384, bias=True)
              (value): Linear(in_features=384, out_features=384, bias=True)
              (dropout): Dropout(p=0.0, inplace=False)
            )
            (output): ViTSelfOutput(
              (dense): Linear(in_features=384, out_features=384, bias=True)
              (dropout): Dropout(p=0.0, inplace=False)
            )
          )
          (drop_path): DropPath(drop_prob=0.027)
          (intermediate): ViTIntermediate(
            (dense): Linear(in_features=384, out_features=1536, bias=True)
            (intermediate_act_fn): GELUActivation()
          )
          (output): ViTOutput(
            (dense): Linear(in_features=1536, out_features=384, bias=True)
            (dropout): Dropout(p=0.0, inplace=False)
            (drop_path): DropPath(drop_prob=0.027)
          )
          (layernorm_before): LayerNorm((384,), eps=1e-05, elementwise_affine=True)
          (layernorm_after): LayerNorm((384,), eps=1e-05, elementwise_affine=True)
        )
        (4): ViTLayer(
          (attention): ViTAttention(
            (attention): ViTSelfAttention(
              (query): Linear(in_features=384, out_features=384, bias=True)
              (key): Linear(in_features=384, out_features=384, bias=True)
              (value): Linear(in_features=384, out_features=384, bias=True)
              (dropout): Dropout(p=0.0, inplace=False)
            )
            (output): ViTSelfOutput(
              (dense): Linear(in_features=384, out_features=384, bias=True)
              (dropout): Dropout(p=0.0, inplace=False)
            )
          )
          (drop_path): DropPath(drop_prob=0.036)
          (intermediate): ViTIntermediate(
            (dense): Linear(in_features=384, out_features=1536, bias=True)
            (intermediate_act_fn): GELUActivation()
          )
          (output): ViTOutput(
            (dense): Linear(in_features=1536, out_features=384, bias=True)
            (dropout): Dropout(p=0.0, inplace=False)
            (drop_path): DropPath(drop_prob=0.036)
          )
          (layernorm_before): LayerNorm((384,), eps=1e-05, elementwise_affine=True)
          (layernorm_after): LayerNorm((384,), eps=1e-05, elementwise_affine=True)
        )
        (5): ViTLayer(
          (attention): ViTAttention(
            (attention): ViTSelfAttention(
              (query): Linear(in_features=384, out_features=384, bias=True)
              (key): Linear(in_features=384, out_features=384, bias=True)
              (value): Linear(in_features=384, out_features=384, bias=True)
              (dropout): Dropout(p=0.0, inplace=False)
            )
            (output): ViTSelfOutput(
              (dense): Linear(in_features=384, out_features=384, bias=True)
              (dropout): Dropout(p=0.0, inplace=False)
            )
          )
          (drop_path): DropPath(drop_prob=0.045)
          (intermediate): ViTIntermediate(
            (dense): Linear(in_features=384, out_features=1536, bias=True)
            (intermediate_act_fn): GELUActivation()
          )
          (output): ViTOutput(
            (dense): Linear(in_features=1536, out_features=384, bias=True)
            (dropout): Dropout(p=0.0, inplace=False)
            (drop_path): DropPath(drop_prob=0.045)
          )
          (layernorm_before): LayerNorm((384,), eps=1e-05, elementwise_affine=True)
          (layernorm_after): LayerNorm((384,), eps=1e-05, elementwise_affine=True)
        )
        (6): ViTLayer(
          (attention): ViTAttention(
            (attention): ViTSelfAttention(
              (query): Linear(in_features=384, out_features=384, bias=True)
              (key): Linear(in_features=384, out_features=384, bias=True)
              (value): Linear(in_features=384, out_features=384, bias=True)
              (dropout): Dropout(p=0.0, inplace=False)
            )
            (output): ViTSelfOutput(
              (dense): Linear(in_features=384, out_features=384, bias=True)
              (dropout): Dropout(p=0.0, inplace=False)
            )
          )
          (drop_path): DropPath(drop_prob=0.055)
          (intermediate): ViTIntermediate(
            (dense): Linear(in_features=384, out_features=1536, bias=True)
            (intermediate_act_fn): GELUActivation()
          )
          (output): ViTOutput(
            (dense): Linear(in_features=1536, out_features=384, bias=True)
            (dropout): Dropout(p=0.0, inplace=False)
            (drop_path): DropPath(drop_prob=0.055)
          )
          (layernorm_before): LayerNorm((384,), eps=1e-05, elementwise_affine=True)
          (layernorm_after): LayerNorm((384,), eps=1e-05, elementwise_affine=True)
        )
        (7): ViTLayer(
          (attention): ViTAttention(
            (attention): ViTSelfAttention(
              (query): Linear(in_features=384, out_features=384, bias=True)
              (key): Linear(in_features=384, out_features=384, bias=True)
              (value): Linear(in_features=384, out_features=384, bias=True)
              (dropout): Dropout(p=0.0, inplace=False)
            )
            (output): ViTSelfOutput(
              (dense): Linear(in_features=384, out_features=384, bias=True)
              (dropout): Dropout(p=0.0, inplace=False)
            )
          )
          (drop_path): DropPath(drop_prob=0.064)
          (intermediate): ViTIntermediate(
            (dense): Linear(in_features=384, out_features=1536, bias=True)
            (intermediate_act_fn): GELUActivation()
          )
          (output): ViTOutput(
            (dense): Linear(in_features=1536, out_features=384, bias=True)
            (dropout): Dropout(p=0.0, inplace=False)
            (drop_path): DropPath(drop_prob=0.064)
          )
          (layernorm_before): LayerNorm((384,), eps=1e-05, elementwise_affine=True)
          (layernorm_after): LayerNorm((384,), eps=1e-05, elementwise_affine=True)
        )
        (8): ViTLayer(
          (attention): ViTAttention(
            (attention): ViTSelfAttention(
              (query): Linear(in_features=384, out_features=384, bias=True)
              (key): Linear(in_features=384, out_features=384, bias=True)
              (value): Linear(in_features=384, out_features=384, bias=True)
              (dropout): Dropout(p=0.0, inplace=False)
            )
            (output): ViTSelfOutput(
              (dense): Linear(in_features=384, out_features=384, bias=True)
              (dropout): Dropout(p=0.0, inplace=False)
            )
          )
          (drop_path): DropPath(drop_prob=0.073)
          (intermediate): ViTIntermediate(
            (dense): Linear(in_features=384, out_features=1536, bias=True)
            (intermediate_act_fn): GELUActivation()
          )
          (output): ViTOutput(
            (dense): Linear(in_features=1536, out_features=384, bias=True)
            (dropout): Dropout(p=0.0, inplace=False)
            (drop_path): DropPath(drop_prob=0.073)
          )
          (layernorm_before): LayerNorm((384,), eps=1e-05, elementwise_affine=True)
          (layernorm_after): LayerNorm((384,), eps=1e-05, elementwise_affine=True)
        )
        (9): ViTLayer(
          (attention): ViTAttention(
            (attention): ViTSelfAttention(
              (query): Linear(in_features=384, out_features=384, bias=True)
              (key): Linear(in_features=384, out_features=384, bias=True)
              (value): Linear(in_features=384, out_features=384, bias=True)
              (dropout): Dropout(p=0.0, inplace=False)
            )
            (output): ViTSelfOutput(
              (dense): Linear(in_features=384, out_features=384, bias=True)
              (dropout): Dropout(p=0.0, inplace=False)
            )
          )
          (drop_path): DropPath(drop_prob=0.082)
          (intermediate): ViTIntermediate(
            (dense): Linear(in_features=384, out_features=1536, bias=True)
            (intermediate_act_fn): GELUActivation()
          )
          (output): ViTOutput(
            (dense): Linear(in_features=1536, out_features=384, bias=True)
            (dropout): Dropout(p=0.0, inplace=False)
            (drop_path): DropPath(drop_prob=0.082)
          )
          (layernorm_before): LayerNorm((384,), eps=1e-05, elementwise_affine=True)
          (layernorm_after): LayerNorm((384,), eps=1e-05, elementwise_affine=True)
        )
        (10): ViTLayer(
          (attention): ViTAttention(
            (attention): ViTSelfAttention(
              (query): Linear(in_features=384, out_features=384, bias=True)
              (key): Linear(in_features=384, out_features=384, bias=True)
              (value): Linear(in_features=384, out_features=384, bias=True)
              (dropout): Dropout(p=0.0, inplace=False)
            )
            (output): ViTSelfOutput(
              (dense): Linear(in_features=384, out_features=384, bias=True)
              (dropout): Dropout(p=0.0, inplace=False)
            )
          )
          (drop_path): DropPath(drop_prob=0.091)
          (intermediate): ViTIntermediate(
            (dense): Linear(in_features=384, out_features=1536, bias=True)
            (intermediate_act_fn): GELUActivation()
          )
          (output): ViTOutput(
            (dense): Linear(in_features=1536, out_features=384, bias=True)
            (dropout): Dropout(p=0.0, inplace=False)
            (drop_path): DropPath(drop_prob=0.091)
          )
          (layernorm_before): LayerNorm((384,), eps=1e-05, elementwise_affine=True)
          (layernorm_after): LayerNorm((384,), eps=1e-05, elementwise_affine=True)
        )
        (11): ViTLayer(
          (attention): ViTAttention(
            (attention): ViTSelfAttention(
              (query): Linear(in_features=384, out_features=384, bias=True)
              (key): Linear(in_features=384, out_features=384, bias=True)
              (value): Linear(in_features=384, out_features=384, bias=True)
              (dropout): Dropout(p=0.0, inplace=False)
            )
            (output): ViTSelfOutput(
              (dense): Linear(in_features=384, out_features=384, bias=True)
              (dropout): Dropout(p=0.0, inplace=False)
            )
          )
          (drop_path): DropPath(drop_prob=0.100)
          (intermediate): ViTIntermediate(
            (dense): Linear(in_features=384, out_features=1536, bias=True)
            (intermediate_act_fn): GELUActivation()
          )
          (output): ViTOutput(
            (dense): Linear(in_features=1536, out_features=384, bias=True)
            (dropout): Dropout(p=0.0, inplace=False)
            (drop_path): DropPath(drop_prob=0.100)
          )
          (layernorm_before): LayerNorm((384,), eps=1e-05, elementwise_affine=True)
          (layernorm_after): LayerNorm((384,), eps=1e-05, elementwise_affine=True)
        )
      )
    )
    (layernorm): LayerNorm((384,), eps=1e-05, elementwise_affine=True)
  )
  (classifier): Linear(in_features=384, out_features=1000, bias=True)
)
number of params: 22050664
Start training
Epoch: [0]  [   0/1668]  eta: 8:29:46  lr: 0.000001  loss: 7.0509 (7.0509)  time: 18.3371  data: 11.3409  max mem: 13754
Epoch: [0]  [ 100/1668]  eta: 0:12:49  lr: 0.000001  loss: 7.0369 (7.0557)  time: 0.2997  data: 0.0004  max mem: 14014
Epoch: [0]  [ 200/1668]  eta: 0:09:42  lr: 0.000001  loss: 7.0141 (7.0420)  time: 0.3021  data: 0.0004  max mem: 14014
…
